…
365/365 - 9s - loss: 0.4000 - accuracy: 0.9953 - val_loss: 83.7248 - val_accuracy: 0.7903 - 9s/epoch - 26ms/step
Epoch 49/150
365/365 - 9s - loss: 0.6986 - accuracy: 0.9927 - val_loss: 98.8516 - val_accuracy: 0.7758 - 9s/epoch - 26ms/step
[2K
[2K
Trial 10 Complete [00h 07m 40s]
val_accuracy: 0.844132661819458

Best val_accuracy So Far: 0.8522959351539612
Total elapsed time: 01h 37m 51s
Model: "sequential"
_________________________________________________________________
 Layer (type)                Output Shape              Param #   
=================================================================
 conv1d (Conv1D)             (None, 128, 88)           3520      
                                                                 
 batch_normalization (BatchN  (None, 128, 88)          352       
 ormalization)                                                   
                                                                 
 max_pooling1d (MaxPooling1D  (None, 64, 88)           0         
 )                                                               
                                                                 
 dropout (Dropout)           (None, 64, 88)            0         
                                                                 
 conv1d_1 (Conv1D)           (None, 64, 336)           148176    
                                                                 
 batch_normalization_1 (Batc  (None, 64, 336)          1344      
 hNormalization)                                                 
                                                                 
 max_pooling1d_1 (MaxPooling  (None, 32, 336)          0         
 1D)                                                             
                                                                 
 dropout_1 (Dropout)         (None, 32, 336)           0         
                                                                 
 conv1d_2 (Conv1D)           (None, 32, 2)             674       
                                                                 
 batch_normalization_2 (Batc  (None, 32, 2)            8         
 hNormalization)                                                 
                                                                 
 max_pooling1d_2 (MaxPooling  (None, 16, 2)            0         
 1D)                                                             
                                                                 
 dropout_2 (Dropout)         (None, 16, 2)             0         
                                                                 
 dense (Dense)               (None, 16, 74)            222       
                                                                 
 flatten (Flatten)           (None, 1184)              0         
                                                                 
 dropout_3 (Dropout)         (None, 1184)              0         
                                                                 
 dense_1 (Dense)             (None, 2)                 2370      
                                                                 
=================================================================
Total params: 156,666
Trainable params: 155,814
Non-trainable params: 852
_________________________________________________________________
None
best parameters is {'units0': 88, 'kernel0': 13, 'dropout_rate0': 0.30000000000000004, 'layer_num': 3, 'units_1': 336, 'kernel_1': 5, 'dropout_rate_1': 0.6000000000000001, 'dense_unit_0': 74, 'dropout_rate_last': 0.5, 'lr': 0.0015266711135635245, 'units_2': 2, 'kernel_2': 1, 'dropout_rate_2': 0.0}
…
