…
46/46 - 67s - loss: 0.0737 - accuracy: 0.9685 - val_loss: 1.0796 - val_accuracy: 0.7633 - 67s/epoch - 1s/step
Epoch 150/150
46/46 - 67s - loss: 0.0701 - accuracy: 0.9781 - val_loss: 0.9315 - val_accuracy: 0.7776 - 67s/epoch - 1s/step
[2K
[2K
Trial 10 Complete [02h 45m 00s]
val_accuracy: 0.8040816187858582

Best val_accuracy So Far: 0.859183669090271
Total elapsed time: 11h 02m 03s
Model: "sequential"
_________________________________________________________________
 Layer (type)                Output Shape              Param #   
=================================================================
 gru (GRU)                   (None, 1024, 666)         1340658   
                                                                 
 batch_normalization (BatchN  (None, 1024, 666)        2664      
 ormalization)                                                   
                                                                 
 max_pooling1d (MaxPooling1D  (None, 512, 666)         0         
 )                                                               
                                                                 
 dropout (Dropout)           (None, 512, 666)          0         
                                                                 
 gru_1 (GRU)                 (None, 512, 438)          1453284   
                                                                 
 batch_normalization_1 (Batc  (None, 512, 438)         1752      
 hNormalization)                                                 
                                                                 
 max_pooling1d_1 (MaxPooling  (None, 256, 438)         0         
 1D)                                                             
                                                                 
 dropout_1 (Dropout)         (None, 256, 438)          0         
                                                                 
 gru_2 (GRU)                 (None, 256, 2)            2652      
                                                                 
 batch_normalization_2 (Batc  (None, 256, 2)           8         
 hNormalization)                                                 
                                                                 
 max_pooling1d_2 (MaxPooling  (None, 128, 2)           0         
 1D)                                                             
                                                                 
 dropout_2 (Dropout)         (None, 128, 2)            0         
                                                                 
 dense (Dense)               (None, 128, 676)          2028      
                                                                 
 flatten (Flatten)           (None, 86528)             0         
                                                                 
 dropout_3 (Dropout)         (None, 86528)             0         
                                                                 
 dense_1 (Dense)             (None, 2)                 173058    
                                                                 
=================================================================
Total params: 2,976,104
Trainable params: 2,973,892
Non-trainable params: 2,212
_________________________________________________________________
None
best parameters is {'units_0': 666, 'dropout_rate0': 0.5, 'layer_num': 3, 'dense_unit_last': 676, 'dropout_rate_last': 0.1, 'lr': 0.0003117786801217963, 'units_1': 438, 'dropout_rate_1': 0.7000000000000001, 'units_2': 2, 'dropout_rate_2': 0.0}
…
